checkpoint.pt (torch_old, 161603 bytes, 21 tensors)

GCNs.0.MLP.linears.0.weight f4 [128, 35]
-0.11668815 0.056551915 0.11312697 -0.15885612 0.103923745 -0.08757871 0.13247716 -0.029526284
0.07032055 0.080171645 -0.05307144 0.039923035 0.07505007 0.13080539 0.044517007 0.109387554
0.07037958 0.1510059 -0.13265035 -0.1027596 0.006063972 0.11214771 -0.19557837 0.07329206
0.17744254 0.12743255 0.168697 -0.056509417 0.028788835 0.14937922 -0.10373555 -0.025752643
-0.070526086 0.13761416 0.026048575 -0.19009013 0.13339868 0.15384053 -0.010561108 0.16829522
-0.1651491 0.010560962 0.041905604 0.030798508 0.08732658 0.054355245 0.1840809 -0.10168082
0.037322585 0.079409406 -0.1429439 -0.097657114 -0.15485458 -0.0745461 -0.095284246 0.15636528
-0.10058927 0.07613684 -0.07013994 0.11869224 -0.018760517 -0.11174438 -0.04104007 -0.11773265
0.090891704 0.15885629 0.054513264 0.044803914 -0.16923621 0.033562623 0.10441564 -0.021163668
-0.17211811 -0.15716484 -0.2072388 0.0031527865 0.041933395 0.0820347 0.10076658 -0.12570809
0.046578612 0.16729723 -0.040630277 -0.21652403 -0.0345084 -0.0814327 0.1250414 0.11806791
0.17748703 0.13523826 0.0065424074 -0.107972525 0.054288264 -0.022729833 -0.08467099 -0.1662772
0.16302226 -0.16308092 -0.05483622 0.07103664 -0.11534138 -0.042610377 -0.16829741 0.054209273
0.19314778 0.096067995 -0.037493784 0.15265942 0.14056419 0.16683201 -0.06420016 0.04889219
0.044988923 0.08189722 0.17849824 -0.093994245 -0.14633639 0.08216571 0.023859281 -0.10321683
0.093070686 -0.020278715 0.17005114 -0.14793083 -0.08434128 0.09162053 -0.11663961 -0.011765592
-0.051342715 0.11865693 -0.16932489 -0.15347512 -0.16928491 0.03061785 -0.0024496356 -0.0814997
-0.12725298 0.10276612 -0.10489839 -0.14310588 -0.035401158 -0.20895664 -0.028969744 -0.0036928966
0.097354375 0.009684402 0.16207774 -0.055998057 0.08197428 -0.1093829 -0.04047492 0.104883604
0.1417806 -0.024481738 -0.11036212 -0.074157886 -0.15769069 0.09441898 0.17136756 -0.029905137
-0.115647495 0.18333367 -0.079985484 -0.03070556 -0.11752768 0.15672584 0.016896036 -0.18699442
0.17755045 0.12608367 0.07474047 0.1831704 0.037751652 -0.075766705 -0.09071908 0.107476234
-0.08943355 0.10542969 -0.08139501 0.1581072 -0.046582524 0.14767943 -0.0777095 0.0601916
0.15183769 0.056861006 0.0038957954 -0.12215104 -0.08794827 0.06959652 0.15926148 -0.07996188
-0.09726253 -0.11775799 0.017793553 -0.08804912 0.061685815 -0.09027344 -0.054749254 0.18432583
-0.10063695 -0.16998449 0.022157324 -0.14266874 -0.09420655 -0.14694999 -0.12529555 0.020949172
0.10571097 -0.05555588 -0.17671667 -0.20042342 -0.012240693 0.05883771 -0.06495664 0.10276343
0.013385119 0.16559772 0.10565425 0.02938509 -0.12895598 -0.070168875 0.15721451 0.047669064
-0.117432065 0.14856762 0.08713106 -0.09920639 0.01679696 0.06413801 0.081276126 -0.038578626
-0.0018231531 0.10759952 -0.02855698 -0.08383086 0.12649453 0.15576392 -0.08232824 -0.15897903
-0.08203556 -0.1073956 -0.0367735 -0.16645323 -0.14509086 0.045754917 -0.051365774 -0.00037191832
0.023793332 0.03342335 0.12989044 -0.039627638 -0.02586651 -0.15865232 -0.19915365 -0.1357963
00000000: 32fa eebd fba2 673d 1daf e73d 2eab 22be
00000010: f9d5 d43d 775c b3bd 18a8 073e 1be1 f1bc
00000020: 3804 903d 0831 a43d 7061 59bd 5686 233d
00000030: dab3 993d d9f1 053e 7757 363d 9506 e03d
00000040: 2b23 903d 4aa1 1a3e 7ed5 07be a073 d2bd
00000050: 49b4 c63b b3ad e53d b245 48be 261a 963d
00000060: 7fb3 353e ae7d 023e e8be 2c3e 6b76 67bd
00000070: 90d6 eb3c def6 183e 4e73 d4bd 35f7 d2bc
00000080: fb6f 90bd baea 0c3e d263 d53c fda6 42be
00000090: aa99 083e 5f88 1d3e 7f08 2dbc 9555 2c3e
000000a0: d81c 29be e307 2d3c 36a5 2b3d 274d fc3c
000000b0: 47d8 b23d 9ba3 5e3d b47f 3c3e 093e d0bd
000000c0: 91df 183d 66a1 a23d e35f 12be 7400 c8bd
000000d0: 3392 1ebe a0ab 98bd 6324 c3bd 381e 203e
000000e0: bf01 cebd a2ed 9b3d 87a5 8fbd eb14 f33d
000000f0: a8af 99bc 3dda e4bd a219 28bd d11d f1bd
00000100: 6e25 ba3d 39ab 223e 4d49 5f3d 4f84 373d
00000110: 424c 2dbe f678 093d ded7 d53d 6e5f adbc
00000120: bb3f 30be d2ef 20be 6836 54be fb9e 4e3b
00000130: 5ac2 2b3d cf01 a83d b55e ce3d 9fb9 00be
00000140: 37c9 3e3d f74f 2b3e ef6b 26bd 7ab8 5dbe
00000150: ae58 0dbd 30c6 a6bd da0a 003e 97cd f13d
00000160: 29bf 353e e67b 0a3e b161 d63b b320 ddbd
00000170: 5f5d 5e3d ea33 babc fc67 adbd 9244 2abe
00000180: 4fef 263e affe 26be f29b 60bd a87b 913d
00000190: 1a38 ecbd 3888 2ebd 2856 2cbe 8b0a 5e3d
000001a0: 88c8 453e 4cbf c43d 1593 19bd c052 1c3e
000001b0: 0ff0 0f3e 03d6 2a3e 607b 83bd 2d43 483d
000001c0: 4e46 383d bbb9 a73d 3ec8 363e 0e80 c0bd
000001d0: 35d9 15be 7f46 a83d 8a74 c33c 5863 d3bd
000001e0: d89b be3d 8c1f a6bc e321 2e3e 2e7b 17be
000001f0: 1fbb acbd 8ba3 bb3d bfe0 eebd 78c4 40bc
00000200: bd4c 52bd 6802 f33d 8163 2dbe 9528 1dbe
00000210: 0659 2dbe 49d2 fa3c 118a 20bb 51e9 a6bd
00000220: 9b4e 02be 0b77 d23d f8d4 d6bd 598a 12be
00000230: ce00 11bd bbf8 55be f551 edbc 8604 72bb
00000240: bb61 c73d 53ab 1e3c b5f7 253e 385e 65bd
00000250: 22e2 a73d 2404 e0bd 08c9 25bd 37cd d63d
00000260: ef2e 113e ed8d c8bc 8905 e2bd 17e0 97bd
00000270: ab79 21be bd5e c13d fa7a 2f3e 9efb f4bc
00000280: 98d8 ecbd d2bb 3b3e 6ecf a3bd 3a8a fbbc
00000290: 5ab2 f0bd bd7c 203e 8e69 8a3c 777b 3fbe
000002a0: c9cf 353e 141c 013e 8811 993d 0591 3b3e
000002b0: 7aa1 1a3d 932b 9bbd edca b9bd 801c dc3d
000002c0: f028 b7bd 85eb d73d 6db2 a6bd dbe6 213e
000002d0: 51cd 3ebd 4739 173e 2926 9fbd 788b 763d
000002e0: 577b 1b3e 16e7 683d 9a50 7f3b 532a fabd
000002f0: 391e b4bd 9f88 8e3d 7115 233e 0ec3 a3bd
00000300: 9431 c7bd 1a2b f1bd c9c3 913c 1953 b4bd
00000310: 44aa 7c3d 48e1 b8bd c140 60bd e9bf 3c3e
00000320: bf1a cebd 6a10 2ebe 4783 b53c c117 12be
00000330: 5def c0bd 0f7a 16be 7a4d 00be 999d ab3c
00000340: fe7e d83d 908e 63bd 37f5 34be cc3b 4dbe
00000350: 308d 48bc d0ff 703d fd07 85bd a275 d23d
00000360: 424d 5b3c 7392 293e 4161 d83d 00b9 f03c
00000370: 090d 04be b3b4 8fbd d7fc 203e a340 433d
00000380: 3980 f0bd 1c22 183e c571 b23d b82c cbbd
00000390: c799 893c ca5a 833d 1974 a63d 9f04 1ebd
000003a0: def6 eeba 235d dc3d 54f0 e9bc 84af abbd
000003b0: c887 013e 9480 1f3e b59b a8bd 66cb 22be
000003c0: 4202 a8bd 39f2 dbbd cf9f 16bd b772 2abe
000003d0: b392 14be 8269 3b3d eb64 52bd 08fe c2b9
000003e0: 3cea c23c ece6 083d 0002 053e 9750 22bd
000003f0: 01e6 d3bc c175 22be efee 4bbe 2f0e 0bbe

GCNs.0.MLP.linears.0.bias f4 [128]
0.0032653876 0.0038077757 0.006934252 -0.00033731677 0.0055828956 0.0051392 -1.2401026e-05 0.002245047
-0.006589891 -0.0031394414 -0.00029759484 -0.0073701427 0.0017059314 0.00045086435 0.00056028325 -0.002073747
0.0009227132 0.001920279 0.0019809636 -0.0071480046 -0.0043357573 0.0032096813 -0.0039039995 0.008316239
-0.0050693722 -0.00078659086 -0.0031274527 0.0049057305 -0.005822945 -0.008797617 -0.001808021 -0.0023249176
0.002197105 -0.0068522543 0.005114738 -0.0022540544 -0.0008350911 -0.0042148717 0.004848011 0.007011139
-0.002666365 0.0067124804 -0.0002959336 0.0014364774 -0.005595189 0.009627807 -0.00034037777 0.0038378679
0.010859601 -0.0051904065 -0.007472764 0.011630002 0.008256424 -0.0018391872 0.00054744596 0.0029787193
-0.0053540855 -0.0013747722 0.0047842585 0.0071811983 0.011087838 0.0032477658 -0.0034709512 0.00034455906
0.00026425344 -0.010522469 -0.0024611712 -0.002715912 0.008497734 -0.0009643265 -0.0061254213 -0.00535366
0.0005103018 0.0046114475 0.0030445661 0.002277196 0.0024779274 0.004899523 -0.00630049 -0.008092091
0.0018880413 0.004778157 0.0006443575 0.0009085581 -0.002035297 0.00429434 0.0008247711 -0.002263807
-0.0023032988 -0.0006385815 0.00019307168 0.0009984481 0.008521751 0.0015761125 0.0027023165 -0.0014201677
0.0021614607 -0.0022476153 -0.0070963483 0.0004802218 0.00436169 -0.00026688902 0.0008721195 -0.00070276484
-0.0009220034 -0.0017845694 -0.0028186117 -0.003904052 -0.008090263 0.00043887226 -0.0027020925 -0.0014486705
-0.0023921507 0.00037019304 -0.005637872 -0.004286941 -0.0022015348 6.9116824e-05 -0.0034852496 -0.004030973
0.0013913023 -0.003617598 -0.0015469465 -0.0043253503 0.0017139532 -0.0055164746 -0.0023921283 -0.0023054439
00000000: 1d00 563b e08b 793b b938 e33b e4d9 b0b9
00000010: b9f0 b63b bc66 a83b 000e 50b7 a321 133b
00000020: 03f0 d7bb 16bf 4dbb 8106 9cb9 3d81 f1bb
00000030: 8f99 df3a fd61 ec39 f9df 123a b4e7 07bb
00000040: 3ce2 713a dfb1 fb3a 0ed3 013b cf39 eabb
00000050: f812 8ebb 8459 523b 3eda 7fbb d640 083c
00000060: fa1c a6bb 3833 4eba f3f5 4cbb 40c0 a03b
00000070: 67ce bebb e123 10bc 1efb ecba a55d 18bb
00000080: 4efd 0f3b e088 e0bb 8899 a73b c2b8 13bb
00000090: 04ea 5aba e81c 8abb 10dc 9e3b b2bd e53b
000000a0: 2ebe 2ebb 5ef4 db3b 8927 9bb9 2f48 bc3a
000000b0: d957 b7bb f3bd 1d3c bb74 b2b9 bd84 7b3b
000000c0: 78ec 313c 4914 aabb 16de f4bb c48b 3e3c
000000d0: f445 073c e210 f1ba 7a82 0f3a 9e36 433b
000000e0: 5371 afbb b331 b4ba 45c5 9c3b 4250 eb3b
000000f0: c3a9 353c 78d8 543b e678 63bb efa5 b439
00000100: 7f8b 8a39 6f66 2cbc 9a4b 21bb 71fd 31bb
00000110: 143a 0b3c dbca 7cba c2b7 c8bb c16d afbb
00000120: c6c5 053a a01b 973b 5887 473b 023d 153b
00000130: b964 223b 2e8c a03b 5774 cebb b194 04bc
00000140: 2778 f73a 1692 9c3b 1aea 283a 4d2c 6e3a
00000150: 9e62 05bb 89b7 8c3b 7435 583a 615c 14bb
00000160: f1f2 16bb 7b66 27ba 4973 4a39 5cde 823a
00000170: d09e 0b3c 8f95 ce3a 5919 313b ec24 baba
00000180: 4ba7 0d3b ba4c 13bb 7c88 e8bb 47c6 fb39
00000190: 82ec 8e3b 3ded 8bb9 f39e 643a c039 38ba
000001a0: 9ab2 71ba 36e8 e9ba 75b8 38bb 20db 7fbb
000001b0: 068d 04bc 7018 e639 9715 31bb 51e1 bdba
000001c0: a1c5 1cbb 7816 c239 e6bd b8bb 7879 8cbb
000001d0: a047 10bb d0f2 9038 c968 64bb 4116 84bb
000001e0: 5c5c b63a 3915 6dbb e9c2 caba abbb 8dbb
000001f0: baa6 e03a 8bc3 b4bb 41c5 1cbb ee16 17bb

GCNs.0.MLP.linears.1.weight f4 [64, 128]
-0.15011762 0.14230822 -0.09700982 0.032175697 0.17119014 -0.087352544 0.14230612 0.06477168
-0.0057793865 0.067306295 -0.048358135 -0.07709874 -0.14299504 0.16895875 -0.06803587 0.13338599
0.013220081 -0.021129172 0.18463053 0.085556716 0.11112688 -0.01371541 0.070791535 -0.17954157
0.0205071 0.0074075614 -0.15034986 -0.008504989 0.0532585 0.08797108 0.029011954 -0.07459254
-0.060627516 -0.13228548 -0.0697192 -0.084104136 -0.14119576 0.05191869 -0.12384379 -0.010263867
0.1320479 -0.117141254 0.08860363 -0.15253381 -0.14744338 0.15609361 -0.065397196 0.1656656
0.18390563 0.05710845 -0.07085064 0.036967248 0.026059544 0.049046822 0.02962886 0.17985004
0.034094583 0.087277435 -0.058089323 -0.05014633 0.13899045 -0.013553943 0.06799179 -0.08171901
0.02377381 -0.10981232 0.020501971 0.025074858 -0.010719049 0.06682237 0.12084538 0.1221204
-0.14330056 -0.025737705 0.11332881 0.11796122 -0.14642031 -0.0077701695 0.022164254 -0.03405379
0.08099495 0.089884505 -0.15310709 0.04753666 -0.10295565 0.11420148 -0.0053888187 0.03637069
-0.021531863 0.15108718 -0.13244067 0.07099194 0.18733323 -0.05416692 0.054488458 -0.07415417
-0.09715714 -0.093219236 0.10075825 0.122365005 0.00033375894 -0.013958084 -0.12568982 0.10847635
0.063623145 0.009832304 -0.109660126 0.07120859 -0.12694201 0.12757367 -0.14009291 0.08616647
-0.11790116 0.028247993 0.16779014 0.11285615 -0.12889138 -0.032335486 0.040895395 -0.07535463
-0.0112123 0.12311892 -0.13884191 -0.13686149 -0.15017582 0.0061065904 -0.013537928 0.050249677
-0.09410606 -0.09966571 -0.07744413 0.06413024 0.19576772 -0.1602673 0.092476085 0.14108863
-0.13860019 -0.0960374 0.15071836 -0.06230474 0.08863865 0.015999937 -0.16417624 0.099407755
0.018860169 -0.106868744 0.02842193 -0.07872226 -0.0901351 -0.057639617 -0.13769837 -0.14178711
0.017722309 -0.12047809 0.060379054 0.13645203 -0.024374165 -0.16510272 -0.16163439 0.07376666
0.013093869 -0.16375777 -0.061102644 0.067909665 0.0067293406 0.08662241 0.18215087 -0.056868557
-0.06353309 -0.15943553 0.16383786 -0.015819436 -0.06352701 -0.03170173 -0.06748593 0.009386158
0.1604229 0.07326634 0.07990764 -0.075954564 0.10440478 0.17101692 -0.12743057 -0.08627776
0.17416173 0.140555 0.049463563 0.16880684 -0.018909572 0.042383146 0.09710869 0.15606144
-0.1161396 0.10349266 0.0727194 -0.08208767 -0.06970139 0.05485146 -0.10145577 0.10109538
0.122503944 0.09605769 -0.08249481 0.15910685 0.080800995 -0.17065835 -0.15912616 0.08402641
0.106057815 0.15634817 0.12625985 0.117614664 -0.062475983 -9.734451e-05 -0.089168705 0.0073094517
0.046290707 0.077886514 0.054456998 0.042295266 0.012787462 -0.13964592 -0.067153774 -0.034615472
0.03818347 0.02227799 -0.06548091 -0.082205914 -0.040367033 0.14066093 0.117407545 -0.15065563
-0.0979165 0.06762924 -0.06770538 -0.06509886 -0.14125785 -0.021327717 0.06898984 0.15557532
-0.051058006 -0.07659881 0.024718497 0.018025855 0.024320649 -0.15253374 0.1587359 -0.0052593336
-0.0037033954 -0.05151679 -0.17279197 -0.058527585 -0.17059614 0.06626765 -0.085921235 -0.14807858
00000000: 6fb8 19be 3fb9 113e 16ad c6bd aaca 033d
00000010: 784c 2f3e e4e5 b2bd b2b8 113e 04a7 843d
00000020: 0261 bdbb e2d7 893d 2e13 46bd f2e5 9dbd
00000030: 4b6d 12be 8603 2d3e 6456 8bbd 5696 083e
00000040: 0a99 583c 1617 adbc c90f 3d3e 5c38 af3d
00000050: 7d96 e33d 99b6 60bc 27fb 903d bfd9 37be
00000060: 81fe a73c 21bb f23b 50f5 19be 8258 0bbc
00000070: 9625 5a3d 2e2a b43d 7aaa ed3c f9c3 98bd
00000080: 8f54 78bd d875 07be f1c8 8ebd ca3e acbd
00000090: 9f95 10be b1a8 543d d0a1 fdbd c729 28bc
000000a0: 9137 073e c1e7 efbd d275 b53d d331 1cbe
000000b0: 66fb 16be 01d7 1f3e f7ee 85bd 3ea4 293e
000000c0: c251 3c3e 8dea 693d 241a 91bd f86a 173d
000000d0: d37a d53c 52e5 483d 39b8 f23c 9c2a 383e
000000e0: c3a6 0b3d 83be b23d 12ef 6dbd 3d66 4dbd
000000f0: 8353 0e3e 5b11 5ebc 483f 8b3d 4c5c a7bd
00000100: 4bc1 c23c 48e5 e0bd c0f3 a73c ca69 cd3c
00000110: f39e 2fbc 2bda 883d c87d f73d 431a fa3d
00000120: 62bd 12be e1d7 d2bc ef18 e83d a795 f13d
00000130: 35ef 15be e89c febb cf91 b53c fd7b 0bbd
00000140: aee0 a53d 5e15 b83d 1bc8 1cbe cdb5 423d
00000150: 69da d2bd 77e2 e93d b094 b0bb 6ff9 143d
00000160: 9763 b0bc 99b6 1a3e 879e 07be 3964 913d
00000170: 48d4 3f3e 22de 5dbd 4a2f 5f3d 24de 97bd
00000180: 53fa c6bd bae9 bebd 575a ce3d 819a fa3d
00000190: 5efc ae39 73b0 64bc d5b4 00be d928 de3d
000001a0: da4c 823d ac17 213c 7d95 e0bd cfd5 913d
000001b0: 16fd 01be aca2 023e 8474 0fbe 0c78 b03d
000001c0: 2a76 f1bd 5668 e73c 2ed1 2b3e 2021 e73d
000001d0: 1afc 03be 3772 04bd ee81 273d 8753 9abd
000001e0: cbb3 37bc c625 fc3d 932c 0ebe 6b25 0cbe
000001f0: b1c7 19be cb19 c83b 30ce 5dbc 9bd2 4d3d
00000200: aeba c0bd 891d ccbd 079b 9ebd b756 833d
00000210: 5577 483e 1c1d 24be 1a64 bd3d 8a79 103e
00000220: 35ed 0dbe 42af c4bd ea55 1a3e 4133 7fbd
00000230: 2e88 b53d 4d12 833c d11d 28be 4b96 cb3d
00000240: a480 9a3c 00de dabd 1bd5 e83c 2339 a1bd
00000250: c098 b8bd 8517 6cbd cd00 0dbe a430 11be
00000260: 602e 913c 38bd f6bd 0750 773d 15ba 0b3e
00000270: 54ac c7bc b010 29be 7c83 25be fa12 973d
00000280: ab87 563c 1eb0 27be c446 7abd 3914 8b3d
00000290: cd81 dc3b 1767 b13d c285 3a3e 01ef 68bd
000002a0: a31d 82bd 1143 23be 1dc5 273e c397 81bc
000002b0: 731a 82bd acd9 01bd 1036 8abd 66c8 193c
000002c0: e745 243e aa0c 963d 9ea6 a33d 118e 9bbd
000002d0: 2cd2 d53d 0f1f 2f3e 297d 02be 65b2 b0bd
000002e0: 7457 323e a6ed 0f3e 4e9a 4a3d b3db 2c3e
000002f0: 3fe8 9abc f399 2d3d ece0 c63d 92ce 1f3e
00000300: 99da edbd f6f3 d33d e9ed 943d 951d a8bd
00000310: 9abf 8ebd edab 603d 0bc8 cfbd 180b cf3d
00000320: 59e3 fa3d e5b9 c43d 0af3 a8bd e8ec 223e
00000330: fe7a a53d 10c1 2ebe f8f1 22be 0a16 ac3d
00000340: d734 d93d bc19 203e 434a 013e f5df f03d
00000350: d1e6 7fbd 7025 ccb8 159e b6bd 2084 ef3b
00000360: 539b 3d3d f782 9f3d 4d0e 5f3d cd3d 2d3d
00000370: 8182 513c 57ff 0ebe eb87 89bd f4c8 0dbd
00000380: 4566 1c3d 5580 b63c db1a 86bd 935b a8bd
00000390: e757 25bd 6b09 103e 5e73 f03d 7845 1abe
000003a0: 7288 c8bd 3381 8a3d 1ea9 8abd 8d52 85bd
000003b0: e6a5 10be 77b7 aebc 8c4a 8d3d 234f 1f3e
000003c0: 3322 51bd d6df 9cbd 727e ca3c f5aa 933c
000003d0: 193c c73c ce31 1cbe aa8b 223e 7d56 acbb
000003e0: aab4 72bb 4503 53bd 61f0 30be 9fba 6fbd
000003f0: c1b0 2ebe 55b7 873d 79f7 afbd e9a1 17be

GCNs.0.MLP.linears.1.bias f4 [64]
0.0008049781 0.009174467 -0.019798337 0.0004600833 0.010635039 -1.3914687e-06 -0.012266521 -0.013070935
0.020967783 0.0054230723 0.0219853 0.006662695 -0.004135442 -0.018802354 0.0038413554 0.00034793533
0.001977476 0.0102132 -0.019066153 0.012167231 0.0317442 0.002517674 -0.0025401157 0.0024186207
0.007195577 0.01061078 0.0048557897 0.012784885 -0.008578122 0.009192128 -0.0015701577 0.0053740274
0.007120054 0.0069643874 -0.0036455556 0.013329539 -0.007881084 -0.008748905 -0.0146602355 0.02556587
-0.009888995 -0.010374084 0.021355864 -0.00618408 -0.023047179 -0.011957176 -0.015823452 -0.023696441
-0.0018219154 -0.015271556 -0.005043371 0.008148143 -0.0025752496 0.0048848973 -0.006435242 -0.011249339
-0.013823372 0.0011374104 -0.013216681 0.0018815459 -0.0028034023 0.0069924654 -0.019834917 -0.014889415
00000000: 2a05 533a 8150 163c 1f30 a2bc 5637 f139
00000010: 963e 2e3c 80c2 bab5 85f9 48bc 7a27 56bc
00000020: a1c4 ab3c 07b4 b13b 841a b43c bd52 da3b
00000030: 9a82 87bb 6507 9abc 40bf 7b3b 176b b639
00000040: 8b98 013b 4455 273c 9f30 9cbc 1159 473c
00000050: 3506 023d 8fff 243b 1278 26bb b981 1e3b
00000060: e0c8 eb3b d6d8 2d3c 511d 9f3b b277 513c
00000070: 408b 0cbc 949a 163c c0cd cdba 9c18 b03b
00000080: 584f e93b 8435 e43b 46ea 6ebb 2464 5a3c
00000090: aa1f 01bc 9157 0fbc 7c31 70bc 846f d13c
000000a0: 7405 22bc 10f8 29bc 7ef2 ae3c d3a3 cabb
000000b0: 70cd bcbc 08e8 43bc 2fa0 81bc 0a1f c2bc
000000c0: 56cd eeba 8c35 7abc dd42 a5bb ca7f 053c
000000d0: 85c5 28bb 7d11 a03b b9de d2bb 264f 38bc
000000e0: 6d7b 62bc 2915 953a c78a 58bc 349e f63a
000000f0: 49b9 37bb 0d21 e53b d67c a2bc bcf2 73bc

GCNs.0.MLP.batch_norms.0.weight f4 [128]
0.98013663 0.99122477 0.99165744 1.0096322 1.017048 0.9887573 0.9918769 1.0175078
0.99890906 0.9884919 1.0157481 0.9930044 0.99885005 1.012591 0.99247307 0.9897526
0.9954983 1.0202658 0.986723 1.004408 1.0049961 1.0000371 0.98509043 0.99298424
1.0056599 0.99844515 1.0193727 1.0341502 0.9975614 1.0359601 0.987355 1.0037483
0.988109 1.0055254 0.9913067 1.0004104 1.0158788 1.0048265 1.0059592 1.0115236
0.99541926 1.0118625 1.0111132 1.0175749 0.9908523 1.008978 1.0050998 0.9965468
0.9830839 1.000065 1.0017798 0.9778568 0.9896229 1.0021122 1.0063119 1.0362628
0.9796568 1.0157481 0.9951876 0.9923121 0.9957317 1.011181 0.990008 0.99405694
0.98662305 1.0186937 1.0051275 1.0004045 0.99907637 1.0009489 1.0063889 1.0274546
0.9924457 0.98803854 0.99413383 1.0175078 0.98080903 1.0235376 1.0128626 0.99283177
0.9957749 0.9962164 0.97158295 1.0139077 0.97994864 1.0201827 1.0051359 0.9812804
0.9824913 1.0083169 0.9875888 0.9974001 1.0172764 1.0062096 0.98242986 0.9997357
1.0074342 0.98675317 1.007341 0.99173474 1.0020871 0.99725336 0.97269434 1.0042896
1.0067203 0.98809296 1.0011674 0.975774 1.0008647 0.9882063 1.0074519 1.0065866
0.9978161 0.98945165 0.991278 1.0049307 1.0016513 0.97719187 1.0090567 1.0171924
0.99795246 0.9937796 0.9854781 0.99934953 1.0013413 1.0042338 0.9940215 1.021403
00000000: 3cea 7a3f e8c0 7d3f 43dd 7d3f a13b 813f
00000010: a12e 823f 331f 7d3f a5eb 7d3f b23d 823f
00000020: 81b8 7f3f ce0d 7d3f 0904 823f 8935 7e3f
00000030: a3b4 7f3f 959c 813f b712 7e3f 6d60 7d3f
00000040: fad8 7e3f 1298 823f e199 7c3f 7190 803f
00000050: b6a3 803f 3701 803f e32e 7c3f 3734 7e3f
00000060: 77b9 803f 1a9a 7f3f ce7a 823f 095f 843f
00000070: 2f60 7f3f 579a 843f 4cc3 7c3f d37a 803f
00000080: b6f4 7c3f 0eb5 803f 47c6 7d3f 730d 803f
00000090: 5108 823f 289e 803f 45c3 803f 9b79 813f
000000a0: ccd3 7e3f b684 813f 286c 813f e53f 823f
000000b0: 7fa8 7d3f 3126 813f 1ca7 803f b11d 7f3f
000000c0: 63ab 7b3f 2102 803f 523a 803f d354 7a3f
000000d0: ed57 7d3f 3645 803f d4ce 803f 42a4 843f
000000e0: caca 7a3f 0904 823f 9dc4 7e3f 2a08 7e3f
000000f0: 46e8 7e3f 616e 813f 2a71 7d3f 847a 7e3f
00000100: 5493 7c3f 8e64 823f 05a8 803f 410d 803f
00000110: 78c3 7f3f 181f 803f 5ad1 803f a283 833f
00000120: ec10 7e3f 18f0 7c3f 8e7f 7e3f b23d 823f
00000130: 4d16 7b3f 4803 833f 7ba5 813f 392a 7e3f
00000140: 1beb 7e3f 0a08 7f3f a9b9 783f bac7 813f
00000150: eadd 7a3f 5995 823f 4ba8 803f 3135 7b3f
00000160: 8d84 7b3f 8710 813f 9fd2 7c3f 9d55 7f3f
00000170: 1d36 823f 7acb 803f 8680 7b3f aeee 7f3f
00000180: 9bf3 803f db9b 7c3f 8df0 803f 54e2 7d3f
00000190: 6444 803f ff4b 7f3f 7f02 793f 908c 803f
000001a0: 36dc 803f a9f3 7c3f 4126 803f 53cc 793f
000001b0: 561c 803f 17fb 7c3f 2ff4 803f d4d7 803f
000001c0: e070 7f3f b44c 7d3f 65c4 7d3f 92a1 803f
000001d0: 1c36 803f 3f29 7a3f c528 813f 5c33 823f
000001e0: d079 7f3f 5768 7e3f 4b48 7c3f 5fd5 7f3f
000001f0: f42b 803f bc8a 803f 3178 7e3f 55bd 823f

GCNs.0.MLP.batch_norms.0.bias f4 [128]
0.0013954339 -0.013597483 0.011020468 0.0025034652 0.0050660437 -0.018921943 -0.022585882 0.026454587
-0.007817168 -0.0155612435 0.011501964 -0.009987065 -0.0007591905 0.0024974903 -0.010259116 -0.0035659596
0.005029923 -0.004377544 0.016205555 -0.00237441 -0.00034066377 0.012744293 -0.008179593 0.0041994173
0.0031800712 -0.0064734477 -0.0031402318 -0.008598107 0.015761226 0.012556761 0.0030366427 0.016445167
0.004153837 -0.0006099627 -0.010945736 -0.027857557 0.010579597 0.0004365096 -0.0008029141 0.015772192
0.008135757 -0.0036229508 -0.010947417 0.011297588 -0.009515769 0.003100475 -0.006573504 -0.010600191
0.009511757 0.0020786554 -0.0031702563 -0.011110874 0.010420163 -0.0018151611 -0.005166987 0.002942583
-0.009146477 -0.009673822 0.014201772 0.002024894 0.0024766172 0.0028912595 -0.0136676775 -0.013351648
0.0065463544 0.021202985 0.00030352912 -0.0027881546 0.021919899 -0.0020772654 0.008509748 0.016140785
-0.009914309 -0.021314753 0.0018339107 0.01323347 0.0013295084 0.0039416216 0.009194546 -0.010758797
-0.0011729656 0.006558538 -0.013032406 0.009678343 0.005301322 0.0066491626 -0.007640582 -0.009056041
-0.0025555117 -0.0015716603 -0.0074598924 -0.0018402267 -0.005936802 -0.009800589 -0.024409711 0.01139531
-0.011055768 -0.018139692 0.012343009 -0.008688785 0.005749668 0.020065367 -0.004273162 0.0029632098
-0.0025152026 -0.040401515 -0.0077236076 -0.014483097 -0.0005047488 0.0117894355 0.009883756 0.011801433
-0.007657425 0.0073966268 -0.02651757 0.016777433 -0.02780704 -0.020035142 0.010823511 0.0040472895
0.002355973 0.002253083 -0.013746775 0.0017248596 -0.017810263 -0.013158133 -0.03758849 0.0102659715
00000000: fee6 b63a fac7 5ebc 318f 343c 2d11 243b
00000010: 0e01 a63b 3102 9bbc 0706 b9bc 4ab7 d83c
00000020: 9413 00bc 96f4 7ebc bc72 3c3c c9a0 23bc
00000030: 6904 47ba efac 233b da15 28bc e0b2 69bb
00000040: 0dd2 a43b 8071 8fbb 83c1 843c fd9b 1bbb
00000050: 1e9b b2b9 70cd 503c b303 06bc 449b 893b
00000060: be68 503b 371f d4bb 59cc 4dbb 13df 0cbc
00000070: b01d 813c dfba 4d3c 6902 473b 04b8 863c
00000080: e91c 883b e7e5 1fba bf55 33bc 8835 e4bc
00000090: 0c56 2d3c 54db e439 a77a 52ba af34 813c
000000a0: d74b 053c 076f 6dbb cb5c 33bc 8519 393c
000000b0: 07e8 1bbc 5731 4b3b 8c66 d7bb 6cac 2dbc
000000c0: 33d7 1b3c 0d3a 083b 13c4 4fbb 620a 36bc
000000d0: 55b9 2a3c b3ea edba d44f a9bb 5ad8 403b
000000e0: 1bdb 15bc f37e 1ebc 8dae 683c 16b4 043b
000000f0: be4e 223b 497b 3d3b 65ee 5fbc dfc0 5abc
00000100: cd82 d63b e2b1 ad3c fd22 9f39 79b9 36bb
00000110: 5c91 b33c bb22 08bb 786c 0b3c ae39 843c
00000120: a06f 22bc 479c aebc d55f f03a 32d1 583c
00000130: e642 ae3a b828 813b b9a4 163c aa45 30bc
00000140: 32be 99ba 01e9 d63b df85 55bc ea91 1e3c
00000150: b6b6 ad3b 38e1 d93b d95d fabb ca5f 14bc
00000160: 5f7a 27bb 2b00 ceba 1d72 f4bb c333 f1ba
00000170: 8189 c2bb a692 20bc e0f6 c7bc 65b3 3a3c
00000180: 4023 35bc b199 94bc 553a 4a3c 685b 0ebc
00000190: b667 bc3b 2060 a43c e205 8cbb 6932 423b
000001a0: 19d6 24bb 0f7c 25bd 5116 fdbb 834a 6dbc
000001b0: 1e51 04ba 7a28 413c 7aef 213c cc5a 413c
000001c0: 23eb fabb 675f f23b 603b d9bc d470 893c
000001d0: 97cb e3bc bd20 a4bc 1855 313c 209f 843b
000001e0: ab66 1a3b 76a8 133b 273a 61bc af14 e23a
000001f0: d4e6 91bc 3695 57bc 63f6 19bd 9b32 283c

GCNs.0.MLP.batch_norms.0.running_mean f4 [128]
0.01828843 0.0064781313 -0.03954196 0.0121508455 0.008674846 0.0018114523 0.035102025 0.0051711295
-0.0025575962 -0.02461831 0.009747743 -0.0016704526 0.023596114 0.024951145 0.015498221 -0.032586597
-0.022971045 -0.011251597 0.013532768 -0.0042832457 -0.020279633 0.022774622 -0.03331784 -0.016982503
-0.0011199483 0.0068132947 -0.036188327 0.0048948717 -0.024781598 -0.020275285 -0.032945033 0.0055641
0.011998834 -0.019374851 -0.020503994 0.004786956 0.0013419894 0.010977987 -0.021071482 -0.0071253506
0.015307537 -0.014803435 -0.007684491 -0.0019169897 -0.0052011935 -0.0041341945 0.005960168 0.024486559
0.0059380983 -0.018857205 -0.024689198 0.00062437484 0.0034109182 0.014042762 -0.0076407907 -0.012763144
0.018079238 0.0027859309 0.005978525 -0.0023032583 0.008773652 -0.004268432 -0.043821797 -0.0033087798
-0.01736993 0.0018805733 -0.02793334 -0.004812747 0.004198813 -0.0017948719 0.009295186 -0.026118707
0.028009193 -0.010173655 0.0076194787 -0.014807772 -0.020072956 -0.00897265 0.006031078 -0.0268723
-0.016594969 0.02224067 0.010017346 0.016552767 -0.014953102 0.017301235 -0.006569888 -0.011401437
-0.0014076469 0.020684503 0.008715499 -0.014442711 0.009669567 0.020432333 0.008042356 0.013093716
-0.012708953 -0.016414901 -0.029115811 -0.02868221 0.016915511 0.014749922 -0.014880495 0.014779199
-0.014290542 0.030600099 0.0021346677 -0.001373965 -0.007013206 0.011517148 -0.0031009458 0.026834484
0.008468295 0.02443673 -0.0022888284 -0.015215291 0.014191767 -0.00015719075 -0.007438832 -0.009537608
0.007259634 -0.015486949 -0.0020231435 -0.013397885 0.009967107 0.009755982 0.0017688558 0.010377394
00000000: 9ed1 953c 8146 d43b c0f6 21bd 5714 473c
00000010: f120 0e3c 416e ed3a 24c7 0f3d 9472 a93b
00000020: 589d 27bb 57ac c9bc ffb4 1f3c 17f3 daba
00000030: a34c c13c 5866 cc3c 40ec 7d3c 8679 05bd
00000040: c62d bcbc 9e58 38bc 8bb8 5d3c 785a 8cbb
00000050: 7921 a6bc d891 ba3c 4a78 08bd e41e 8bbc
00000060: 3bcb 92ba 0f42 df3b 363a 14bd 2965 a03b
00000070: c702 cbbc 5b18 a6bc 5ff1 06bd 0e53 b63b
00000080: c296 443c 02b8 9ebc fef7 a7bc e6db 9c3b
00000090: b1e5 af3a 04dd 333c 1a9e acbc c67b e9bb
000000a0: 77cc 7a3c 1b8a 72bc 2fce fbbb 8043 fbba
000000b0: c66e aabb 2378 87bb 834d c33b 0998 c83c
000000c0: 6194 c23b 6d7a 9abc 0041 cabc 16ad 233a
000000d0: b689 5f3b 9d13 663c 995f fabb 821c 51bc
000000e0: e91a 943c 2a94 363b 81e7 c33b 43f2 16bb
000000f0: 5dbf 0f3c 34de 8bbb 7c7e 33bd 1dd8 58bb
00000100: 624b 8ebc 927d f63a 76d4 e4bc 3fb4 9dbb
00000110: 3296 893b e841 ebba d64a 183c e6f6 d5bc
00000120: 8973 e53c 67af 26bc d2ac f93b 4c9c 72bc
00000130: 0a70 a4bc 0602 13bc 59a0 c53b 4c23 dcbc
00000140: 2cf2 87bc 1132 b63c cb1f 243c ab99 873c
00000150: dbfd 74bc 52bb 8d3c 3748 d7bb 18cd 3abc
00000160: cb80 b8ba 8c72 a93c 74cb 0e3c 1fa1 6cbc
00000170: 1b6d 1e3c b561 a73c 16c4 033c 0787 563c
00000180: 3639 50bc 8b78 86bc 4884 eebc f4f6 eabc
00000190: 6692 8a3c a8a9 713c 52cd 73bc 7424 723c
000001a0: e122 6abc 0fad fa3c c8e5 0b3b 9d16 b4ba
000001b0: 09cf e5bb 6cb2 3c3c 3d39 4bbb fed3 db3c
000001c0: 9bbe 0a3c 8a2f c83c 2b00 16bb 8e49 79bc
000001d0: 9684 683c 92d3 24b9 72c1 f3bb a143 1cbc
000001e0: 39e2 ed3b f9bc 7dbc b796 04bb cd82 5bbc
000001f0: 144d 233c 8ed7 1f3c f4d8 e73a f205 2a3c

GCNs.0.MLP.batch_norms.0.running_var f4 [128]
0.04487211 0.029450895 0.24219753 0.024920005 0.0148081705 0.023274416 0.15538931 0.01481386
0.014013118 0.07527478 0.03511861 0.024935253 0.06990564 0.10958732 0.054875083 0.13822615
0.08220752 0.042907186 0.024141181 0.016808484 0.04056384 0.06862168 0.10411931 0.09074941
0.021303834 0.02735633 0.14779736 0.016394116 0.06836051 0.031157026 0.12640618 0.013783202
0.034746144 0.046659984 0.10710977 0.015977094 0.03121964 0.044043675 0.10096287 0.032313537
0.05198124 0.085338004 0.027873512 0.031959005 0.022921955 0.04812261 0.019537155 0.059688065
0.024046559 0.03880564 0.046349358 0.023524368 0.014510571 0.037029907 0.03212902 0.04420579
0.062186837 0.022295715 0.038657025 0.028176207 0.012067682 0.015696382 0.21180522 0.019926421
0.08098363 0.030185506 0.07911793 0.03714872 0.008225826 0.012632771 0.047634136 0.0727271
0.117632754 0.04937873 0.011251178 0.049649518 0.07214364 0.060388032 0.036968105 0.08151244
0.05782492 0.059444405 0.024333917 0.08174115 0.047079843 0.03922227 0.033397168 0.041311715
0.01591252 0.07198595 0.029345512 0.047646075 0.01723005 0.078954704 0.04725524 0.036270052
0.048430722 0.04033951 0.07322085 0.10879403 0.040163364 0.034456853 0.046599858 0.047499757
0.04401531 0.13412653 0.014753992 0.01866693 0.00924424 0.036982294 0.013686693 0.11253546
0.026142988 0.07629421 0.00988031 0.044610247 0.04903067 0.017150847 0.017738434 0.036047515
0.035837956 0.053564813 0.021293698 0.01945722 0.02556123 0.051570445 0.012882644 0.039786242
00000000: d1cb 373d 0143 f13c a102 783e 0a25 cc3c
00000010: f89d 723c fda9 be3c 601e 1f3e d5b5 723c
00000020: 4797 653c aa29 9a3d 88d8 0f3d 0445 cc3c
00000030: b02a 8f3d 516f e03d b2c4 603d 288b 0d3e
00000040: 6b5c a83d 72bf 2f3d bac3 c53c f2b1 893c
00000050: 4526 263d 8689 8c3d 813c d53d d4da b93d
00000060: 6185 ae3c 621a e03c 3158 173e f44c 863c
00000070: 9800 8c3d 053d ff3c 9f70 013e f0d2 613c
00000080: f951 0e3d 8a1e 3f3d 5e5c db3d 65e2 823c
00000090: 55c0 ff3c 2467 343d 9fc5 ce3d 335b 043d
000000a0: 48ea 543d b1c5 ae3d fe56 e43c 72e7 023d
000000b0: d3c6 bb3c 371c 453d 620c a03c 797b 743d
000000c0: 4afd c43c aaf2 1e3d d3d8 3d3d 2db6 c03c
000000d0: bfbd 6d3c acac 173d b899 033d 2111 353d
000000e0: a0b7 7e3d 81a5 b63c d456 1e3d cad1 e63c
000000f0: 87b7 453c b395 803c 78e3 583e bc3c a33c
00000100: bfda a53d 9847 f73c 9508 a23d 4229 183d
00000110: 9dc5 063c aff9 4e3c 031c 433d f2f1 943d
00000120: 71e9 f03d 5a41 4a3d dc56 383c 4b5d 4b3d
00000130: 0bc0 933d 7159 773d de6b 173d ffef a63d
00000140: d3d9 6c3d fa7b 733d ec57 c73c e767 a73d
00000150: cbd6 403d 88a7 203d 78cb 083d 7936 293d
00000160: f95a 823c 5f6d 933d 0066 f03c 8828 433d
00000170: 0926 8d3c 01b3 a13d b68e 413d e88f 143d
00000180: 4b5f 463d 0b3b 253d d0f4 953d 68cf de3d
00000190: 5782 243d a122 0d3d 7edf 3e3d 1b8f 423d
000001a0: 6649 343d 7758 093e baba 713c 64eb 983c
000001b0: 2775 173c bf7a 173d 273e 603c fe78 e63d
000001c0: d229 d63c 2440 9c3d 06e1 213c 3cb9 363d
000001d0: 62d4 483d ef7f 8c3c 3150 913c 8fa6 133d
000001e0: d2ca 123d c766 5b3d 1f70 ae3c bf64 9f3c
000001f0: c965 d13c 883b 533d ba11 533c e6f6 223d

GCNs.1.MLP.linears.0.weight f4 [128, 64]
0.07592344 -0.086226836 0.06566267 -0.13568823 -0.016458824 -0.111420155 -0.118467614 0.12161598
-0.06146477 -0.007711975 -0.02444182 -0.09276918 0.012060602 -0.0012022606 -0.10096404 0.010245214
-0.12813441 0.029964931 0.14522496 0.023824425 -0.19105963 -0.14899877 0.046360128 0.1539669
-0.09634789 -0.1618686 0.016291358 -0.0045326743 -0.09727884 0.05009701 0.030712105 0.07268063
-0.18016402 0.07557153 -0.0019054482 0.05983682 -0.10543477 -0.07057945 -0.13714226 -0.13637334
0.16570099 0.074424595 -0.041911118 0.1072354 0.17534976 0.054153025 -0.0069897682 -0.17869003
0.094917364 0.112494886 0.10871951 -0.0020513022 0.0009554921 0.16881374 0.023554228 -0.13861996
0.12860331 -0.06894589 0.13115133 -0.1390481 -0.015689412 -0.11657025 0.15278232 0.09715134
0.09823162 0.18756859 -0.14840601 -0.024254903 0.1629684 -0.040584855 -0.08428303 0.15005615
-0.08657966 0.09218205 0.11278942 -0.10838343 -0.060803 -0.050169963 0.18585217 -0.08365969
-0.11625928 -0.14593372 0.07391691 -0.04263593 0.057833932 0.058589347 0.142569 -0.09205369
-0.024697553 -0.05227408 -0.03835746 -0.0879233 0.08722804 0.025715675 -0.0540558 -0.05719019
-0.08818153 0.0094603645 -0.037004966 0.10015165 -0.13977724 -0.11260139 -0.03875641 -0.01705259
0.009131313 0.19952719 -0.13422182 0.020186067 -0.18541622 0.0036113248 0.0027865323 -0.14229777
0.124091186 -0.08694854 -0.11364809 -0.07407087 -0.12714091 -0.064226285 -0.12642027 0.007107483
0.11758915 0.07398715 -0.027360467 0.029629545 0.11024875 0.11528152 0.16832319 -0.09692886
-0.12503606 0.1615779 -0.030177979 0.12403459 -0.15151948 0.071902886 -0.13611664 0.1483155
-0.053922452 0.026130756 0.092284866 0.01993623 -0.10116878 -0.08186426 0.15127085 -0.001717834
-0.054986235 0.105687626 -0.18112858 -0.07571511 0.17878665 -0.0535327 0.118174635 0.053454317
0.045318756 -0.10191545 0.20650296 -0.010444148 -0.15843235 -0.06245402 -0.15531139 -0.01064964
0.09265041 -0.07090342 0.028413998 -0.112307854 0.103435285 0.03977054 0.13198473 0.16647074
0.14373668 -0.14388444 0.16512507 0.0053533954 0.1065636 0.13329156 0.049453486 0.096750505
0.13619944 0.11461512 0.09119141 0.11654615 0.12299394 -0.09176685 -0.06027841 -0.035776794
0.14265418 -0.049567703 -0.10506774 -0.14973447 -0.093676865 -0.15475227 0.11577857 0.04216044
0.11324747 0.03397527 0.016797502 0.03985076 -0.016611459 0.0363163 0.06509808 0.020899998
0.038902614 -0.15526079 -0.1406074 -0.11238729 0.14101467 0.06125074 -0.104898565 0.12839998
0.013175475 0.09952568 -0.14273357 0.10924779 -0.03128585 0.0005720019 -0.088388935 -0.029537119
0.12431585 -0.036563873 -0.049490012 -0.05469637 -0.055808615 0.13731949 0.12006644 -0.10738596
-0.0047848662 0.09163417 -0.13379687 0.16083203 0.10882937 -0.0077505144 0.113915 0.11159018
-0.14804927 0.03638992 0.13484265 -0.038294353 -0.021420969 -0.012082639 -0.016613688 -0.0012619675
0.0066916826 -0.13653928 0.08790713 -0.098532915 -0.075306624 0.071920216 -0.1406168 0.009301584
0.11160591 0.16890259 -0.14436476 -0.08056108 -0.14223385 0.08606311 0.064563476 0.18035264
00000000: c07d 9b3d b297 b0bd 267a 863d dbf1 0abe
00000010: a8d4 86bc 4030 e4bd 269f f2bd cd11 f93d
00000020: 7cc2 7bbd bcb4 fcbb 363a c8bc c5fd bdbd
00000030: d599 453c 2c95 9dba 3cc6 cebd 8bdb 273c
00000040: ab35 03be 0479 f53c dab5 143e 712b c33c
00000050: 23a5 43be 2293 18be 1ee4 3d3d 80a9 1d3e
00000060: 0b52 c5bd e2c0 25be 7475 853c d486 94bb
00000070: 213a c7bd 8632 4d3d f497 fb3c 95d9 943d
00000080: eb7c 38be 3fc5 9a3d 3bc0 f9ba 7417 753d
00000090: 2fee d7bd f58b 90bd 056f 0cbe 74a5 0bbe
000000a0: 85ad 293e ec6b 983d feaa 2bbd 3c9e db3d
000000b0: e38e 333e 90cf 5d3d 6d0a e5bb 85fa 36be
000000c0: 0964 c23d b863 e63d 56a8 de3d 246f 06bb
000000d0: fd79 7a3a 82dd 2c3e ccf4 c03c 64f2 0dbe
000000e0: 96b0 033e 8133 8dbd 894c 063e a062 0ebe
000000f0: 1587 80bc 62bc eebd f872 1c3e 48f7 c63d
00000100: a92d c93d fb11 403e bff7 17be 38b2 c6bc
00000110: 30e1 263e 4e3c 26bd 959c acbd 52a8 193e
00000120: ad50 b1bd f1c9 bc3d 24fe e63d 22f8 ddbd
00000130: 910c 79bd 057f 4dbd 0850 3e3e c655 abbd
00000140: 5819 eebd a66f 15be c061 973d 03a3 2ebd
00000150: 46e3 6c3d 62fb 6f3d 9cfd 113e a586 bcbd
00000160: 8652 cabc 591d 56bd b61c 1dbd 2211 b4bd
00000170: 9da4 b23d aea9 d23c 9d69 5dbd 4340 6abd
00000180: 8598 b4bd a5ff 1a3c 8592 17bd 4f1c cd3d
00000190: c421 0fbe 8f9b e6bd 0bbf 1ebd e0b1 8bbc
000001a0: 819b 153c db50 4c3e 7271 09be 405d a53c
000001b0: c0dd 3dbe faab 6c3b 419e 363b 82b6 11be
000001c0: 8523 fe3d 1312 b2bd 54c0 e8bd 78b2 97bd
000001d0: 3a31 02be 1289 83bd 5174 01be e4e5 e83b
000001e0: 95d2 f03d 9386 973d 0f23 e0bc a9b9 f23c
000001f0: 19ca e13d b818 ec3d ea5c 2c3e a382 c6bd
00000200: 7409 00be ad74 253e cf37 f7bc d905 fe3d
00000210: ec27 1bbe d241 933d 2962 0bbe 05e0 173e
00000220: cadd 5cbd 2b10 d63c d9ff bc3d 4e51 a33c
00000230: 9431 cfbd 73a8 a7bd bfe6 1a3e f228 e1ba
00000240: 3f39 61bd c172 d83d c579 39be 8610 9bbd
00000250: d913 373e 1b45 5bbd 8b05 f23d eaf2 5a3d
00000260: 29a0 393d 0cb9 d0bd 8375 533e ef1d 2bbc
00000270: 173c 22be c9cf 7fbd f309 1fbe d47b 2ebc
00000280: 80bf bd3d d035 91bd 79c4 e83c a901 e6bd
00000290: e1d5 d33d 6fe6 223d 0127 073e 4e77 2a3e
000002a0: b52f 133e 7156 13be 8c16 293e 896b af3b
000002b0: 043e da3d 957d 083e bd8f 4a3d 2125 c63d
000002c0: de77 0b3e 55bb ea3d 90c2 ba3d bfaf ee3d
000002d0: 3fe4 fb3d 42f0 bbbd 7ee6 76bd b08a 12bd
000002e0: f013 123e 8107 4bbd c12d d7bd fe53 19be
000002f0: a8d9 bfbd 6177 1ebe 511d ed3d 6db0 2c3d
00000300: 4aee e73d a729 0b3d ea9a 893c 8d3a 233d
00000310: c114 88bc 67c0 143d 2452 853d 7936 ab3c
00000320: 5958 1f3d affc 1ebe 63fb 0fbe 4f2b e6bd
00000330: 2666 103e 0ee2 7a3d 0fd5 d6bd 497b 033e
00000340: f3dd 573c 1fd4 cb3d c028 12be 4ebd df3d
00000350: 9725 00bd 66f2 153a 4205 b5bd d4f7 f1bc
00000360: 4f99 fe3d 00c4 15bd 0ab6 4abd 4d09 60bd
00000370: 9397 64bd 7b9d 0c3e 65e5 f53d 2ced dbbd
00000380: 5eca 9cbb b2aa bb3d 0c02 09be 27b1 243e
00000390: efe1 de3d 07f8 fdbb 444c e93d 6489 e43d
000003a0: 3a9a 17be 990d 153d 3114 0a3e 8ada 1cbd
000003b0: 077b afbc 43f6 45bc 6e19 88bc 9a68 a5ba
000003c0: e745 db3b f4d0 0bbe a708 b43d a0cb c9bd
000003d0: 5c3a 9abd e84a 933d dafd 0fbe ac65 183c
000003e0: a491 e43d cdf4 2c3e 5bd4 13be 35fd a4bd
000003f0: c0a5 11be db41 b03d db39 843d 5dae 383e

GCNs.1.MLP.linears.0.bias f4 [128]
0.0017573994 -0.0031151704 -0.0033309984 -0.0026689488 -0.0058240797 0.00014015818 0.00058308506 0.00072306313
-0.0036270847 -2.430809e-05 0.00020259999 0.0015197634 0.0018654293 -0.0019762493 -0.0013264334 -1.32630485e-05
-0.0016238883 0.0016468002 -0.000103934486 -3.5745612e-05 -0.00061296945 -0.0019230299 -0.0008003757 0.0045510232
0.00209232 0.0016435892 -0.0043334616 0.0017460162 0.0017381991 0.0025312637 0.0006356834 9.5566196e-05
-0.0014163612 0.0023406148 -0.003678257 0.0015200061 0.0036164965 -0.00030033675 -0.0007793235 0.00025855345
0.0013213123 -0.002687471 -0.0011238221 0.00065490825 0.00021492828 0.004860907 -9.7171396e-05 0.0005325156
0.00080709765 -0.00035117977 0.004116382 -0.00049297407 -0.0004967564 -0.0014891642 -0.00039490667 5.5952154e-05
-0.0015612352 0.000121304314 -0.00072707434 -0.0004586668 -0.0012439318 -0.0029751435 -0.003665836 -0.0004107488
-0.0034379777 0.0036209484 9.111952e-05 0.00021849383 -0.00050650426 -0.0005992793 -0.0023606068 -0.0029966352
0.00059313077 0.00086367066 0.0012829325 0.0005695782 -0.00019117398 -0.0012893954 -0.0009816065 -0.001840215
-0.0008360876 0.0019874196 0.0008791503 0.0013594347 -0.0014532795 -0.00035523775 -0.0018385367 0.00059206074
0.002776868 0.0015038121 0.00084688474 0.0031015992 0.00057162845 -0.0018241915 0.002823533 2.011883e-05
0.0019441296 0.0006583701 -0.00040742866 -0.00091887324 -0.0009822914 0.0010538693 0.0020840182 0.0016591504
-0.0027497946 0.0017212956 -0.0010845524 2.7919561e-05 0.002512226 0.0027040662 0.0009365811 0.00096923555
0.0009723722 -0.00033070345 0.0045116064 -0.00079146127 0.0010765672 0.0009492073 0.0009746625 -0.0015783238
0.00064680586 0.001470811 -0.0031787036 0.003465306 -0.0018344526 0.0013088185 0.0003559165 0.0009573947
00000000: 8a58 e63a e327 4cbb e14c 5abb 88e9 2ebb
00000010: ecd7 bebb 6df7 1239 2dda 183a f28b 3d3a
00000020: 62b4 6dbb 3ae9 cbb7 0571 5439 cc32 c73a
00000030: 6c81 f43a f683 01bb b8db adba 5c84 5eb7
00000040: a6d8 d4ba 72d9 d73a 67f7 d9b8 8fed 15b8
00000050: afaf 20ba 2d0e fcba 4ed0 51ba c020 953b
00000060: 4e1f 093b b46d d73a b6ff 8dbb 95da e43a
00000070: 49d4 e33a 8fe3 253b fea3 263a b66a c838
00000080: 32a5 b9ba 0065 193b ea0e 71bb f13a c73a
00000090: be02 6d3b 8476 9db9 844b 4cba 758e 8739
000000a0: e22f ad3a 4820 30bb 364d 93ba 26ae 2b3a
000000b0: 5f5e 6139 3e48 9f3b 7fc8 cbb8 8498 0b3a
000000c0: 6893 533a 8d1e b8b9 b7e2 863b ee3a 01ba
000000d0: c238 02ba 0f30 c3ba 7a0b cfb9 2bae 6a38
000000e0: 5ca2 ccba c264 fe38 2299 3eba 3779 f0b9
000000f0: 6d0b a3ba a0fa 42bb 863e 70bb c559 d7b9
00000100: b24f 61bb 6f4d 6d3b 6b17 bf38 7e1b 6539
00000110: edc6 04ba f418 1dba 69b4 1abb 3263 44bb
00000120: 557c 1b3a f567 623a 1228 a83a bf4f 153a
00000130: e075 48b9 ee00 a9ba 40a9 80ba 5e33 f1ba
00000140: e42c 5bba 5e3f 023b c776 663a 0f2f b23a
00000150: f87b beba 343f bab9 0efb f0ba 8634 1b3a
00000160: 1dfc 353b 901b c53a 7901 5e3a 3344 4b3b
00000170: 56d9 153a b619 efba 060b 393b dcc4 a837
00000180: 2ad2 fe3a 7896 2c3a 269c d5b9 8ae0 70ba
00000190: 3bc0 80ba fc21 8a3a 0694 083b d977 d93a
000001a0: e635 34bb 199d e13a 8a27 8eba cd34 ea37
000001b0: 29a4 243b b436 313b e584 753a 4c14 7e3a
000001c0: cbe6 7e3a 4462 adb9 19d6 933b 117a 4fba
000001d0: 9a1b 8d3a 39d4 783a 7e80 7f3a c2df ceba
000001e0: 688e 293a 3ac8 c03a cc51 50bb 301a 633b
000001f0: 0472 f0ba a98c ab3a 4e9a ba39 acf9 7a3a

GCNs.1.MLP.linears.1.weight f4 [64, 128]
0.12985149 -0.076797456 -0.10177462 0.095341325 0.18018848 0.10725076 0.0850199 0.107285514
-0.113385156 0.033446025 -0.1398693 -0.1432121 -0.07451687 -0.13473217 0.10897635 0.0056300606
0.04003471 -0.13129376 0.0022105032 -0.1150263 -0.047922906 -0.14656046 -0.0036290865 0.05111576
-0.07418771 0.16189523 -0.0028809994 -0.08025616 -0.016845003 0.04308348 -0.13731347 0.1657761
0.07684178 -0.06522895 -0.05680547 0.1768594 0.174594 -0.13502227 -0.025557786 0.13706818
-0.09809475 -0.16195993 -0.052057657 -0.013931355 0.05580795 0.08291214 -0.029213207 -0.12038079
0.06748828 0.17143828 0.06954736 -0.0026195596 0.094746456 0.027106415 0.11292516 -0.07714779
-0.15009454 0.019705264 -0.03788448 0.109800786 -0.028844751 -0.035105117 -0.12670368 -0.016799334
-0.08767531 -0.075861774 -0.12660147 -0.030403513 0.17401856 -0.1478229 -0.038400218 -0.11062276
0.17906271 0.097915575 -0.10054434 -0.022868205 -0.13252634 0.056743763 0.014078658 0.13407224
-0.058035947 0.06739304 -0.12319169 -0.043647192 0.096636415 0.1482684 0.13100782 -0.04220636
-0.051874235 -0.11257288 0.16902585 0.14689109 0.17312014 -0.116178334 0.15293913 -0.09093401
-0.10486706 0.060336765 -0.10211589 0.17263484 0.08535508 0.122668885 0.10244081 -0.13585345
0.11000841 0.18030316 0.01344798 -0.1368962 0.15090342 -0.092568055 0.09488619 0.041316915
0.1250608 -0.0046190526 -0.030880272 -0.14921075 -0.13645865 0.019700885 -0.065714836 -0.061997652
0.15097031 -0.017441424 0.012481182 -0.086941965 0.15277603 0.00056978036 0.005154261 0.043947544
-0.09521493 0.033038825 0.06772198 -0.10830561 -0.072799 -0.1794477 0.029627776 -0.04056056
-0.05961412 0.09472422 -0.1556985 -0.11354334 0.13091768 0.054964498 -0.16059798 0.1419158
-0.06020771 -0.090547256 0.12291151 0.06679131 0.13426213 0.036687177 0.014488133 -0.02427253
0.10520006 0.13521798 0.076250024 0.05906327 0.07118954 -0.036132067 -0.024342088 0.006742687
-0.108449705 0.15252326 0.17059721 -0.0939651 0.105688184 -0.025862612 0.11736293 -0.07070593
0.21248439 -0.045439485 0.12687932 0.13266012 0.024073562 0.007569364 -0.017526858 -0.15717699
0.055130377 0.03884405 -0.086760946 0.046024196 0.14409721 -0.1519274 0.14166978 0.03792502
0.086589456 0.061566267 0.16143735 0.13849597 0.112908974 -0.045061834 -0.053632043 -0.13939749
-0.12408837 -0.15521479 0.15754095 -0.1721346 0.13308874 -0.14682154 0.17683415 0.050403334
0.047515657 -0.025641397 -0.028922662 0.16990335 -0.00029965234 -0.0044079763 0.047407437 0.12689267
-0.04832339 0.09200819 -0.03768338 -0.059782237 0.06540058 0.086512536 -0.10357163 -0.1404802
-0.11346747 -0.10681587 0.15725999 0.102368906 -0.1497651 0.13395001 -0.043293044 -0.008840413
0.10550127 0.13294351 0.0058828015 0.027422179 0.034340546 -0.15121953 -0.008262465 -0.17676777
0.121194266 -0.1426821 0.035048105 0.16034941 0.1303544 -0.17459144 -0.04877189 0.121352054
-0.1391982 -0.021846715 -0.06968139 0.02526108 0.08221939 0.0456479 0.07437394 -0.010118532
-0.11121086 0.12499741 0.16446537 0.11730805 -0.17735764 -0.069685854 -0.082212836 -0.112039976
00000000: caf7 043e fc47 9dbd 366f d0bd 5042 c33d
00000010: 5483 383e 49a6 db3d ea1e ae3d 82b8 db3d
00000020: 7a36 e8bd b3fe 083d e639 0fbe 31a6 12be
00000030: 4d9c 98bd 3bf7 09be fe2e df3d 5f7c b83b
00000040: 70fb 233d df71 06be 17de 103b e992 ebbd
00000050: cf4a 44bd f213 16be f8d5 6dbb c25e 513d
00000060: baef 97bd ddc7 253e 26cf 3cbb 575d a4bd
00000070: 88fe 89bc 4e78 303d e79b 0cbe 36c1 293e
00000080: 395f 9d3d c196 85bd daac 68bd a11a 353e
00000090: c5c8 323e 4743 0abe 905e d1bc 9a5b 0c3e
000000a0: e6e5 c8bd d3d8 25be 693a 55bd 5740 64bc
000000b0: e196 643d d7cd a93d 8950 efbc 348a f6bd
000000c0: 4c37 8a3d 848d 2f3e d96e 8e3d ebac 2bbb
000000d0: 6e0a c23d 460e de3c 4e45 e73d a9ff 9dbd
000000e0: 62b2 19be ef6c a13c c22c 1bbd 3cdf e03d
000000f0: d44b ecbc 62ca 0fbd 9cbe 01be c29e 89bc
00000100: 1d8f b3bd 6b5d 9bbd d1a3 01be ca10 f9bc
00000110: ec31 323e e35e 17be 8c49 1dbd 308e e2bd
00000120: 375c 373e f687 c83d 31ea cdbd 1a56 bbbc
00000130: fcb4 07be 266c 683d 2caa 663c 3c4a 093e
00000140: 1ab7 6dbd 5d05 8a3d ed4b fcbd 66c7 32bd
00000150: 50e9 c53d acd3 173e ea26 063e 93e0 2cbd
00000160: 147a 54bd 9c8c e6bd 1d15 2d3e 9e6a 163e
00000170: 6846 313e e8ee edbd 139c 1c3e 9c3b babd
00000180: 8bc4 d6bd af23 773d 2322 d1bd 30c7 303e
00000190: a5ce ae3d d339 fb3d 7dcc d13d 2b1d 0bbe
000001a0: 174c e13d 64a1 383e eb54 5c3c 842e 0cbe
000001b0: 6d86 1a3e 5294 bdbd b153 c23d ed3b 293d
000001c0: f00f 003e 6c5b 97bb a0f8 fcbc b4ca 18be
000001d0: d1bb 0bbe c063 a13c 8095 86bd 40f1 7dbd
000001e0: f697 1a3e 51e1 8ebc df7d 4c3c a10e b2bd
000001f0: 5271 1c3e 505d 153a 13e5 a83b 5702 343d
00000200: 0c00 c3bd b853 073d d2b1 8a3d 55cf ddbd
00000210: a417 95bd 23c1 37be f3b5 f23c d422 26bd
00000220: ef2d 74bd c6fe c13d 6d6f 1fbe 6989 e8bd
00000230: 490f 063e 7422 613d cc73 24be 6052 113e
00000240: 5c9c 76bd d770 b9bd 08b9 fb3d e2c9 883d
00000250: 037c 093e 4b45 163d a25f 6d3c 2fd7 c6bc
00000260: 2173 d73d 9576 0a3e f928 9c3d 54ec 713d
00000270: d2cb 913d 38ff 13bd 0f69 c7bc c2f1 dc3b
00000280: e11a debd 0f2f 1c3e 09b1 2e3e c670 c0bd
00000290: 0c73 d83d d4dd d3bc fa5b f03d 45ce 90bd
000002a0: 8295 593e c11e 3abd a7ec 013e 0ed8 073e
000002b0: eb35 c53c 6d08 f83b 7c94 8fbc 01f3 20be
000002c0: 64d0 613d f01a 1f3d b9af b1bd de83 3c3d
000002d0: 388e 133e db92 1bbe e211 113e 4457 1b3d
000002e0: d055 b13d e92c 7c3d d54f 253e e3d1 0d3e
000002f0: d23c e73d c292 38bd 46ad 5bbd 37be 0ebe
00000300: 0b22 febd a0f0 1ebe 6a52 213e 0d44 30be
00000310: 6a48 083e 6358 16be 0314 353e ba73 4e3d
00000320: c79f 423d e80d d2bc 38ef ecbc 25fb 2d3e
00000330: a81a 9db9 c970 90bb 4d2e 423d 27f0 013e
00000340: bfee 45bd ca6e bc3d e359 1abd 38de 74bd
00000350: bdf0 853d 7c2d b13d 5d1d d4bd 0bda 0fbe
00000360: a261 e8bd 47c2 dabd c308 213e caa6 d13d
00000370: 065c 19be 312a 093e 0c54 31bd 61d7 10bc
00000380: 0d11 d83d 5822 083e 84c4 c03b 7aa4 e03c
00000390: aca8 0c3d 4bd9 1abe 4a5f 07bc 9c02 35be
000003a0: b334 f83d 421b 12be 9a8e 0f3d a332 243e
000003b0: a07b 053e 19c8 32be 09c5 47bd 6d87 f83d
000003c0: f989 0ebe e2f7 b2bc 1eb5 8ebd 53f0 ce3c
000003d0: a462 a83d 4bf9 3a3d 5d51 983d 33c8 25bc
000003e0: 85c2 e3bd a4fe ff3d 9c69 283e 343f f03d
000003f0: 3e9d 35be 75b7 8ebd 345f a8bd 3775 e5bd

GCNs.1.MLP.linears.1.bias f4 [64]
-0.0023938778 -0.008998308 0.0073387786 -0.0035589961 0.0028750454 0.0034157748 0.0004246769 -0.011604338
-0.0029214337 -0.013401631 0.0037298636 -0.0047240146 -0.0033820504 0.00060301507 -0.017570365 -0.014606857
0.014951428 -0.014219544 0.014669083 0.0050394153 -2.0864842e-05 0.001548022 -0.011139792 -0.021050427
0.018810924 -0.011951827 -0.000879448 0.0048347036 0.0009929768 0.008960087 -0.002422628 0.00225433
-0.020573303 -0.005341837 0.024558935 -0.0024867745 0.0005652722 -0.010712794 0.010578739 0.004183984
-0.008475817 0.018271923 0.013457185 -0.0053934385 -0.008438332 0.0024859249 0.0091121085 0.015727695
0.014634062 -0.0027221444 -0.008098689 0.015188199 -0.0075397813 0.003393651 -0.0042748027 -0.011668987
0.008737338 -0.007442807 0.019710274 0.020858519 0.019362606 0.005931664 0.009174547 0.004907218
00000000: 9be2 1cbb a46d 13bc 237a f03b 0c3e 69bb
00000010: 426b 3c3b 31db 5f3b 2ba7 de39 1f20 3ebc
00000020: 8675 3fbb 8492 5bbc ba70 743b e8cb 9abb
00000030: 64a5 5dbb a813 1e3a baef 8fbc 9951 6fbc
00000040: d6f6 743c 17f9 68bc 9856 703c ae21 a53b
00000050: e806 afb7 00e7 ca3a ad83 36bc f271 acbc
00000060: 5e19 9a3c 99d1 43bc c28a 66ba 6f6c 9e3b
00000070: c626 823a 54cd 123c f4c4 1ebb 62bd 133b
00000080: 5889 a8bc 940a afbb d22f c93c 27f9 22bb
00000090: c62e 143a b784 2fbc 7352 2d3c cd19 893b
000000a0: 27de 0abc 00af 953c 867b 5c3c 71bb b0bb
000000b0: ee40 0abc e6ea 223b f44a 153c 5ed7 803c
000000c0: b4c3 6f3c 0166 32bb 5db0 04bc ecd7 783c
000000d0: 4510 f7bb 0468 5e3b a513 8cbb 472f 3fbc
000000e0: 0d27 0f3c cae2 f3bb 7177 a13c 7cdf aa3c
000000f0: 549e 9e3c 675e c23b d750 163c bacc a03b
